models/actor.pth (torch, 579282 bytes, 12 tensors)

action_scale f4 [2]
0	0x3f800000	1.0
1	0x3f800000	1.0

action_bias f4 [2]
0	0x00000000	0.0
1	0x00000000	0.0

fc1.weight f4 [256, 43]
0	0x3e93acc6	0.28842753
1	0xbf234d84	-0.63790154
2	0x3d90aec8	0.07064587
3	0x3fb99a42	1.4500201
4	0xbf9fda70	-1.2488537
5	0x3e4445a5	0.19167192
6	0x3d21feb3	0.03954954
7	0x3e60c546	0.21950254
8	0x3d4bc65f	0.04974973
9	0x3c1a50d0	0.009418681
10	0x3e2c4f9e	0.16827247
11	0x3e3ca284	0.1842137
12	0x3e27d383	0.16389279
13	0xbe6f1508	-0.23347867
14	0x3d0fcab0	0.035105407
15	0x3e29d42d	0.16584845
16	0x3e1987cf	0.14993213
17	0xbce5bc7b	-0.028043976
18	0x3d1e27e0	0.038612247
19	0xbebf695d	-0.37385073
20	0xbe84a783	-0.2590905
21	0xbe902b3c	-0.28157985
22	0xbe67b1ca	-0.22626415
23	0xbe3b04d7	-0.18263565
24	0xbe0be646	-0.13662061
25	0xbe93d9b5	-0.28877035
26	0x3d88325d	0.06650231
27	0x3e8e1155	0.27747598
28	0xbdeb5aee	-0.11491953
29	0x3e07583e	0.13217255
30	0x3dd07ab4	0.10179654
31	0x3e639dca	0.2222816
32	0x3e2e620d	0.17029591
33	0xbea57a4c	-0.32319868
34	0xbe577943	-0.21042351
35	0xbb18adc6	-0.0023296936
36	0x3e2b902d	0.16754217
37	0xbd61e9f7	-0.055154767
38	0x3e1e96ab	0.15487163
39	0xbd702898	-0.058632463
40	0x3e1500d3	0.14551096
41	0xbd8ac107	-0.06775098
42	0x3dea36dd	0.114362456
43	0xbe2c71bb	-0.1684026
44	0xbfc3caff	-1.5296324
45	0x3df8e2f6	0.12152664
46	0xbf376b3c	-0.71648
47	0xbef07846	-0.4696676
48	0xba6a21a9	-0.00089314074
49	0x3d50abb6	0.050945006
50	0xbe6c4362	-0.2307258
51	0x3da46748	0.08027512
52	0x3e5cfead	0.21581526
53	0x3e37683e	0.17910859
54	0x3eb19f66	0.34691924
55	0x3e4e9a6c	0.20176095
56	0x3da77a46	0.08177619
57	0x3c94abf9	0.01814841
58	0x3d8895be	0.06669186
59	0x3e03a942	0.12857535
60	0x3dbe5767	0.092940144
61	0x3e1e5d4a	0.15465274
62	0x3e18d388	0.14924443
63	0x3e81afb8	0.25329375
64	0x3a16bb2a	0.00057499355
65	0xbe54921d	-0.20758863
66	0xbda9680a	-0.08271797
67	0xbd51469a	-0.05109272
68	0xbd8ccf55	-0.06875483
69	0x3d72fa54	0.059320763
70	0x3e331723	0.17489295
71	0x3ca3b73e	0.019984838
72	0x3e8f096e	0.27936882
73	0x3e4abe61	0.19799186
74	0x3e490bba	0.1963338
75	0x3e02827e	0.12745091
76	0xbde2a116	-0.11065881
77	0xbd9c8068	-0.07641679
78	0xbdffa922	-0.124834314
79	0x3dc0380a	0.093856886
80	0xbd92108e	-0.07132064
81	0xbc5cde7e	-0.013480781
82	0xbdcaeb1a	-0.09908123
83	0xbe360e5e	-0.17778918
84	0x3dda2ee9	0.10653479
85	0xbdb4dfbc	-0.088317364
86	0xbec43fda	-0.38329965
87	0x3dab5f0d	0.08367739
88	0xbe0b7566	-0.13619003
89	0x3f855393	1.041613
90	0x3d730af0	0.059336603
91	0xbe696778	-0.22793376
92	0xbd3b129f	-0.045672055
93	0xbca6991c	-0.02033668
94	0xbea65870	-0.32489347
95	0xbea241d3	-0.31690845
96	0xbd924d8f	-0.071436994
97	0xbda23dbc	-0.07921931
98	0xbe2fa887	-0.17154132
99	0xbe0216e9	-0.12704052
100	0x3eb687c6	0.35650462
101	0x3e016d90	0.12639451
102	0x3e4e5cdc	0.2015261
103	0x3e793f4a	0.24340549
104	0x3c738434	0.014863063
105	0x3bb2776a	0.005446364
106	0x3ed1ebbe	0.4100017
107	0x3e75d21b	0.2400593
108	0x3ed37c66	0.41305846
109	0x3ecce2ca	0.40016776
110	0x3e5ea08c	0.21740931
111	0x3f211cc2	0.62934506
112	0x3f006260	0.5015011
113	0x3e068683	0.1313725
114	0x3e5d598e	0.21616194
115	0x3eb30476	0.3496434
116	0x3e0dc0f2	0.13843134
117	0x3df62bb8	0.120200574
118	0xbed37f06	-0.4130785
119	0xbe12dfea	-0.14343229
120	0xbeb3a671	-0.35087922
121	0xbd2060cd	-0.039154816
122	0x3d895fa9	0.06707699
123	0xbea2e6c1	-0.31816676
124	0xbe1d9345	-0.1538821
125	0xbe8cd35b	-0.27505
126	0xbe67ff06	-0.22655877
127	0xbdd3dac2	-0.10344459
128	0x3db3f2b1	0.08786524
129	0x3c0feb95	0.0087841945
130	0xbd013cae	-0.03155201
131	0x3c9f5508	0.019449726
132	0x3fa16c13	1.2611107
133	0xbc2eccb2	-0.01066892
134	0x3da6b3ad	0.08139739
135	0x3e83cc80	0.2574196
136	0x3d023556	0.031789146
137	0xbd809776	-0.06278889
138	0xbe76b799	-0.24093474
139	0xbe5d8ce2	-0.21635774
140	0xbe2a7f4d	-0.16650124
141	0x3dddcc35	0.10829965
142	0xbcd526e2	-0.026019517
143	0x3dd3bed5	0.10339133
144	0x3e3a6a30	0.1820457
145	0x3d944620	0.07239938
146	0x3e9eea6d	0.31038228
147	0x3ed1b301	0.40956882
148	0x3ed29d25	0.41135517
149	0x3f01f394	0.50762296
150	0x3e9348d4	0.287665
151	0x3ea2b0f1	0.3177562
152	0x3c033e7d	0.008010504
153	0xbdce5307	-0.1007443
154	0xbf6438a3	-0.8914892
155	0xbedef2bf	-0.43544576
156	0xbee7b659	-0.45256308
157	0xbdb6eddb	-0.08932086
158	0x3e8c8d23	0.2745143
159	0x3cb21b09	0.021741407
160	0xbe55ee1c	-0.20891613
161	0xbd2217c2	-0.03957344
162	0x3d90c6b2	0.07069148
163	0x3d90c540	0.070688725
164	0xbe5f4749	-0.21804537
165	0xbd314ea4	-0.04328789
166	0xbeb62f6a	-0.3558305
167	0xbe5c335d	-0.21503969
168	0xbe61a156	-0.22034201
169	0xbdf4c4b3	-0.1195158
170	0xbcd8f2ed	-0.026483024
171	0x3d858ecd	0.06521378
172	0xbc93e1ef	-0.01805207
173	0x3e0d509b	0.1380028
174	0x3e747670	0.23873305
175	0x3fbc3707	1.4704293
176	0x3e6c51e4	0.23078114
177	0x3dbb23ee	0.091377124
178	0xbe42ee47	-0.19036208
179	0x3e1f103d	0.15533538
180	0xbbdffbbb	-0.0068354285
181	0x3c8496e6	0.016185235
182	0xbedb647e	-0.42850107
183	0xbd852229	-0.06500656
184	0xbebd609f	-0.3698778
185	0x3e42754e	0.1899006
186	0xbe9131e6	-0.28358382
187	0xbece0064	-0.40234673
188	0xbd898bd7	-0.067161255
189	0xbef54be8	-0.47909474
190	0xbd4ed802	-0.05049897
191	0xbefb3c51	-0.49069455
192	0xbe44ee80	-0.19231606
193	0xbd9036f5	-0.07041732
194	0x3e5c4624	0.21511132
195	0x3d2c1635	0.042013366
196	0x3e8af2d2	0.27138382
197	0x3ee44d64	0.44590294
198	0x3ec50e6d	0.38487568
199	0x3bc01800	0.005862236
200	0x3ddd39b8	0.108020246
201	0xbea56d6c	-0.32310045
202	0x3e83747e	0.25674814
203	0xbdb604c5	-0.088876285
204	0x3e7930b3	0.24334984
205	0x3e233023	0.15936331
206	0xbbbc82ec	-0.005752912
207	0x3d8534d8	0.0650422
208	0x3dfbd0b6	0.12295668
209	0x3de4be1b	0.11169072
210	0xbd949e33	-0.072567366
211	0x3e13eea4	0.14446503
212	0xbd8f9cd1	-0.07012332
213	0x3e2abab1	0.1667278
214	0x3e082625	0.13295801
215	0x3ea10dc2	0.3145581
216	0x3f3a5184	0.7278063
217	0xbe530c0b	-0.20610063
218	0x3efdb51f	0.49552247
219	0x3f53fcdb	0.828077
220	0xbe594d27	-0.21220838
221	0x3ebbca76	0.36677903
222	0xbe3808d6	-0.1797212
223	0xbe78c54f	-0.24294017
224	0x3e802351	0.25026944
225	0xbd72ef07	-0.059309985
226	0xbd0004f0	-0.03125471
227	0x3ea6813d	0.32520476
228	0x3ea2fa64	0.31831658
229	0x3e82cddb	0.2554768
230	0x3d094986	0.033517383
231	0xbd30bd92	-0.04314954
232	0x3e09689a	0.13418809
233	0xbe237c0c	-0.15965289
234	0xbdf65173	-0.12027254
235	0xbba73425	-0.0051026517
236	0xbef57ec1	-0.47948268
237	0x3e07375a	0.13204709
238	0x3d8d2af1	0.06892956
239	0xbea9d7bb	-0.33172402
240	0xbeb71d40	-0.35764503
241	0xbe7a9bba	-0.24473467
242	0xbe016a8a	-0.12638298
243	0xbe51397a	-0.20432082
244	0xbeea5323	-0.45766553
245	0xbe0e19fd	-0.13877101
246	0xbed4847c	-0.41507328
247	0xbeb674d4	-0.35636008
248	0xbea49915	-0.32148042
249	0x3e27e044	0.16394144
250	0x3e4d764a	0.20064655
251	0xbe16999a	-0.14707032
252	0x3d764428	0.060123593
253	0x3d9ef88b	0.077622496
254	0x3d13cec6	0.036085866
255	0xbe24b40c	-0.16084307

fc1.bias f4 [256]
0	0x3d83b507	0.064310126
1	0xbd63264b	-0.05545644
2	0xbde4eb54	-0.11177698
3	0x3d671c42	0.056423433
4	0x3e67fc16	0.22654757
5	0xbda9fc2d	-0.08300052
6	0xbca43c23	-0.020048207
7	0x3dcf1a55	0.10112444
8	0x3e0baf4b	0.13641088
9	0xbd0eb961	-0.03484476
10	0xbe1c7a3d	-0.15281005
11	0xbe74c67b	-0.2390384
12	0x3d0c9905	0.03432562
13	0xbc4e7579	-0.01260125
14	0x3dd5758e	0.104228124
15	0x3dcbcb19	0.09950847
16	0x3c9407cf	0.01807013
17	0x3dda18a8	0.10649234
18	0xbdc07b7e	-0.09398554
19	0x3dc86579	0.097849794
20	0x3deb8d6c	0.115015835
21	0xbe15bf10	-0.14623666
22	0x3da67b53	0.08128991
23	0x3d734567	0.05939236
24	0xbe15fb6c	-0.14646691
25	0x3aad8d05	0.001324088
26	0x3dbc2429	0.091865845
27	0x3cdb60a3	0.026779478
28	0x3dffa146	0.12481932
29	0x3ce58030	0.028015226
30	0x3d8fb483	0.07016852
31	0xbe009cb0	-0.12559772
32	0x3bb71fe4	0.0055885185
33	0x3d89c314	0.06726661
34	0x3d1d8f65	0.03846683
35	0x3e53194e	0.20615122
36	0xbded330e	-0.115820035
37	0x3df2ede5	0.11861781
38	0x3e054194	0.13013297
39	0x3d3b6609	0.045751605
40	0xbdf55f7c	-0.11981103
41	0xbd72465a	-0.059149124
42	0x3e027fac	0.12744015
43	0xbd8a9f9f	-0.067687266
44	0xbe05fb13	-0.13084058
45	0xbe568eca	-0.20952907
46	0xbdd78415	-0.105232395
47	0xbc371a05	-0.011175637
48	0xbe08037e	-0.13282582
49	0xbbf4edcd	-0.007474637
50	0x3df8f865	0.121567525
51	0x3e6ec8f6	0.23318848
52	0x3d99e7de	0.07514928
53	0x3de19d2b	0.110163055
54	0x3d686478	0.05673644
55	0xbd889ad8	-0.06670159
56	0x3dfe0e66	0.1240509
57	0xbd6e01c7	-0.058107164
58	0x3c703e6c	0.01466332
59	0xbd1fd8a6	-0.03902497
60	0xbd44d33f	-0.048053022
61	0xbd83e529	-0.06440193
62	0x3d186f51	0.037215535
63	0x3c5844be	0.013199983
64	0xbc9cf6fd	-0.019160742
65	0xbd999789	-0.07499606
66	0xbe0f6cef	-0.14006399
67	0xbd8d5dfc	-0.06902692
68	0xbd9a4f94	-0.075347096
69	0x3d1693c0	0.036762
70	0x3cb30d5f	0.021856962
71	0xbd82dd95	-0.0638992
72	0x3d2484a8	0.040165573
73	0xbc8ef5eb	-0.017451247
74	0x3e3ec7db	0.18630926
75	0x3d22cb89	0.039744888
76	0xbd3b0121	-0.045655373
77	0xbe01d0d5	-0.1267732
78	0xbdd0157b	-0.10160347
79	0xbdfef313	-0.124487065
80	0x3da8f65a	0.08250113
81	0x3e0acf88	0.1355573
82	0xbdd505ad	-0.10401473
83	0xbe18399c	-0.14865726
84	0xbd7f77df	-0.062370177
85	0xbc5cb951	-0.013471917
86	0xbddbfc56	-0.10741489
87	0x3da942d6	0.08264701
88	0x3dbf57a8	0.09342891
89	0xbd3cc954	-0.04609044
90	0x3d80b91a	0.06285305
91	0xbceb76d3	-0.028743183
92	0xbcdb7daa	-0.02679332
93	0xbd06fc12	-0.032955237
94	0x3df0e3be	0.117621884
95	0xbe257d9f	-0.16161202
96	0x3d505bcb	0.05086879
97	0xbe3c67b7	-0.18398939
98	0xbe0a6891	-0.13516451
99	0xbd574e2a	-0.052564777
100	0xbd4091ee	-0.04701417
101	0xbe422773	-0.18960361
102	0xbdd32539	-0.10309834
103	0x3c53cf1a	0.012927795
104	0x3d22177e	0.039573185
105	0xbcee037b	-0.029054394
106	0xbdd30ba4	-0.10304955
107	0xbe3971b1	-0.18109776
108	0xbc97a649	-0.018511908
109	0xbb0f4da2	-0.002186634
110	0x3cad08e9	0.021122413
111	0xbdca4a7c	-0.09877488
112	0xbdb7872f	-0.08961331
113	0x3d3febe0	0.046855807
114	0xbe31017a	-0.1728572
115	0x3e03fd53	0.12889604
116	0xbd9e14f9	-0.07718844
117	0xbdf96583	-0.12177565
118	0xbe024aeb	-0.12723891
119	0x3d57da09	0.05269817
120	0x3dbbe9fa	0.09175487
121	0x3d36cab8	0.04462692
122	0x3dc687aa	0.096938446
123	0xbdebf29a	-0.11520882
124	0xbd0a8951	-0.03382236
125	0x3e09a7e6	0.13442954
126	0xbe5b053e	-0.21388718
127	0xbc8ca727	-0.017169548
128	0xbcf40cc6	-0.029791247
129	0xbdf6656e	-0.12031065
130	0xbdd7077b	-0.10499474
131	0xbe3e0933	-0.18558197
132	0x3e668204	0.22510535
133	0xbdfdc0aa	-0.123902634
134	0x3dd78e1d	0.10525153
135	0x3e61f906	0.22067651
136	0xbe122bf7	-0.14274584
137	0xbdd9bafb	-0.10631367
138	0x3dad0807	0.08448797
139	0xbb7621a1	-0.0037556665
140	0x3e028ecb	0.12749784
141	0xbe074221	-0.1320882
142	0xbe0899c2	-0.13339904
143	0xbd110992	-0.035409518
144	0xbdb43ddf	-0.088008635
145	0xbd499e77	-0.04922339
146	0xbddea621	-0.1087153
147	0x3db94afa	0.09047504
148	0xbd7f2e81	-0.06230021
149	0xbd26f478	-0.040760487
150	0xbde1bd15	-0.11022393
151	0xbd9c73d1	-0.07639278
152	0x3c9caf8a	0.019126672
153	0xbd80638e	-0.062689885
154	0x3dd9fb48	0.10643631
155	0xbe0f90b2	-0.1402004
156	0xbc23a303	-0.0099875955
157	0xbd8482de	-0.064702734
158	0x3e54c1cc	0.20777053
159	0xbbda6fe4	-0.0066661704
160	0x3da4978d	0.080367185
161	0x3d35c86f	0.0443806
162	0x3e0787e2	0.13235429
163	0x3e0082b6	0.12549862
164	0x3dda7e19	0.106685825
165	0xbc2a291f	-0.010385781
166	0xbdfc9039	-0.12332196
167	0x3dfab8b2	0.12242259
168	0xbd8a4c89	-0.06752879
169	0x3d09dbc1	0.03365684
170	0xbd7697cb	-0.060203355
171	0xbd0cdf38	-0.034392565
172	0xbdc2723a	-0.09494443
173	0xbda070c5	-0.07834009
174	0x3e1c67eb	0.15274017
175	0xbe013fff	-0.12622069
176	0xbe0501e4	-0.12989002
177	0x3daa9c9d	0.08330653
178	0xbc181976	-0.009283414
179	0xbe0a7b2a	-0.13523546
180	0xbd0c5bf1	-0.03426737
181	0x3e144b55	0.14481862
182	0x3dcf897c	0.10133645
183	0xbd06e42b	-0.03293244
184	0x3e081053	0.13287477
185	0xbd2df428	-0.042469174
186	0xbdf8150d	-0.1211339
187	0x3bed3798	0.0072392933
188	0x3d9913e9	0.07474501
189	0xbd944879	-0.072403856
190	0xbdfd25fe	-0.12360762
191	0xbe852730	-0.2600646
192	0x3e1735da	0.14766636
193	0x3d0a4df6	0.033765756
194	0xbdfe047a	-0.124031976
195	0x3bc239a9	0.005927284
196	0xbe15e065	-0.14636381
197	0x3d7004a3	0.058598172
198	0x3dd29ca7	0.10283785
199	0xbdaaebb0	-0.08345735
200	0x3c27e200	0.010246754
201	0xbdebc585	-0.11512283
202	0x3e0892b4	0.13337213
203	0x3e41606f	0.18884443
204	0xbd42f8af	-0.047600444
205	0xbe13cf2c	-0.14434499
206	0x3e04c021	0.12963916
207	0x3e57bccf	0.21068119
208	0xbe5b4246	-0.21412
209	0xbdf59663	-0.119915746
210	0xbdb4d554	-0.088297516
211	0xbe1c3b91	-0.15257098
212	0xbdd3075a	-0.103041366
213	0x3db8c37d	0.090216614
214	0x3e57e3ec	0.21083039
215	0x3daf762b	0.085674606
216	0x3e2aa65f	0.16665028
217	0x3db9c211	0.09070218
218	0x3db30298	0.08740729
219	0xbe862f03	-0.26207742
220	0x3d8b2200	0.06793594
221	0x3c68472e	0.014177127
222	0x3dba1df6	0.09087746
223	0x3de5d668	0.11222535
224	0xbdbe6944	-0.092974216
225	0xbda4b4ec	-0.080423206
226	0xbd023bdd	-0.03179537
227	0x3e364014	0.17797881
228	0xbd1fc56c	-0.039006636
229	0x3e3e912c	0.18610066
230	0xbe1863b9	-0.14881791
231	0xbe4fa130	-0.20276332
232	0xbd931c24	-0.07183102
233	0x3dc4e7f6	0.096145555
234	0xbd6e5e92	-0.058195658
235	0xbdc454eb	-0.09586509
236	0xbd143a02	-0.036188133
237	0x3c8e5072	0.017372344
238	0x3cbb3de3	0.022856658
239	0xbd58f77d	-0.0529704
240	0x3cb2e1c8	0.021836177
241	0x3e06a9b4	0.13150674
242	0xbe1b66d6	-0.15175948
243	0xbe5d1d70	-0.21593261
244	0x3cc91979	0.02454828
245	0xbd46c60a	-0.04852871
246	0x3d1ab4ce	0.037770085
247	0x3d8e5fcd	0.06951866
248	0xbe5417f4	-0.20712262
249	0x3d72e3d8	0.05929932
250	0xbad9a6ca	-0.0016605493
251	0xbe4626ea	-0.19350782
252	0x3e0ce582	0.13759425
253	0xbde7e3a6	-0.11322717
254	0x3d8a67a7	0.06758051
255	0x3c4416df	0.0119683435

fc2.weight f4 [256, 256]
0	0x3e65c974	0.2244013
1	0x3ebb874a	0.36626655
2	0xbd0fcfb7	-0.0351102
3	0x3eabbcb0	0.33542395
4	0xbdab28f9	-0.08357424
5	0xbf017852	-0.5057422
6	0x3d19c79f	0.03754389
7	0xbca4b6bc	-0.020106666
8	0xbc1c4ced	-0.009539825
9	0xbd2a02ff	-0.041506764
10	0xbd4b717e	-0.04966878
11	0xbe8f0c73	-0.27939186
12	0xbd10cf74	-0.035354093
13	0x3ece5696	0.40300435
14	0xbe192569	-0.14955677
15	0xbd142678	-0.0361695
16	0x3d902a1b	0.07039281
17	0xbeea9239	-0.45814684
18	0xbed394d8	-0.41324496
19	0xbcf40ad8	-0.029790327
20	0xbdc44a03	-0.09584429
21	0x3a816dfb	0.0009874696
22	0xbe4b88ad	-0.19876356
23	0x3d668012	0.05627448
24	0xbe091393	-0.13386373
25	0x3d70f96b	0.058831614
26	0xbe25b988	-0.16184056
27	0xbe081fb3	-0.13293342
28	0x3d254852	0.040352173
29	0xbe9ddd61	-0.3083296
30	0xbf2a04c9	-0.6641355
31	0xbe889b71	-0.26681092
32	0xbd3a6676	-0.04550787
33	0x3f0837f2	0.53210366
34	0x3b561c20	0.0032670572
35	0x3e4da334	0.20081788
36	0xbdec5ead	-0.115414955
37	0x3de674d2	0.112527505
38	0x3e3998d1	0.18124701
39	0x3ec81042	0.39074904
40	0xbce77292	-0.028252874
41	0x3d82bb9b	0.06383439
42	0x3da1d2a8	0.079015076
43	0xbc4b6d88	-0.012416251
44	0xbc6638d0	-0.014051631
45	0x3e13aeb2	0.1442211
46	0x3d1db39c	0.038501367
47	0x3d78ee5e	0.0607742
48	0xbd6e32fb	-0.058154088
49	0xbe9b6e29	-0.30357483
50	0xbea564ab	-0.32303366
51	0x3ec609d0	0.3867936
52	0x3e39c4d0	0.18141484
53	0x3c227718	0.0099160895
54	0x3d573278	0.052538365
55	0xbbc3df00	-0.0059775114
56	0x3dbc4e2c	0.091945976
57	0x3ca94bf8	0.020666108
58	0x3c759c3a	0.014990861
59	0xbcfe61d4	-0.031052507
60	0x3ebf92d7	0.37416717
61	0xbe438038	-0.1909188
62	0xbd40bc62	-0.047054656
63	0xbd0f4e9a	-0.03498707
64	0xbc0085b0	-0.007844374
65	0x3ee6a9fd	0.45051566
66	0x3cc15dbc	0.023604266
67	0xbd595ca6	-0.053066872
68	0x3d5e9696	0.05434283
69	0xbd0aeb66	-0.0339159
70	0xbd70d53a	-0.0587971
71	0xbd439f5d	-0.047759403
72	0xbbb2ec62	-0.005460308
73	0xbe84e3ea	-0.25955135
74	0x3da49c21	0.08037592
75	0x3c3cd505	0.011525397
76	0x3dce8386	0.1008368
77	0xbc89d72c	-0.016826235
78	0xbcddbf40	-0.027068734
79	0x3e1d5ff0	0.15368629
80	0x3d7db35c	0.06193863
81	0xbe322d38	-0.17400062
82	0x3d16dcac	0.036831543
83	0xbd78b886	-0.06072285
84	0x3cf80e61	0.030280294
85	0xbeb8ada8	-0.3606999
86	0xbdd91331	-0.105993636
87	0x3ca9dccd	0.020735169
88	0x3e1e955c	0.15486664
89	0x3d58115a	0.052750923
90	0xbe1360f9	-0.14392461
91	0x3f1a40b6	0.6025499
92	0xbb0738d5	-0.002063324
93	0xbd2d94e2	-0.042378314
94	0xbe664ced	-0.22490282
95	0xbd61fe36	-0.055174075
96	0xbd68f97e	-0.05687856
97	0x3d9ef258	0.07761067
98	0xbca07bb9	-0.019590246
99	0x3adafdc0	0.0016707703
100	0x3d2fc248	0.04290989
101	0x3d4e8971	0.050424043
102	0xbd13ff38	-0.036132067
103	0xbdc0d30f	-0.09415256
104	0x3bd7ec20	0.0065894276
105	0x3e343078	0.17596614
106	0xbd8e95ec	-0.06962189
107	0x3dc328a8	0.09529239
108	0xbd23dd7e	-0.040006153
109	0x3d259d62	0.040433295
110	0xbeae4060	-0.3403349
111	0xbddd0fa4	-0.10793999
112	0x3cd515b0	0.026011318
113	0xbccb5b99	-0.02482395
114	0xbe828460	-0.2549162
115	0x3d757826	0.059929036
116	0xbd87a967	-0.06624108
117	0x3d8fbbfe	0.070182785
118	0xbe137301	-0.1439934
119	0x3e3435b7	0.17598616
120	0x3e76e9cf	0.24112628
121	0x3e432293	0.19056158
122	0xbef206c6	-0.47270793
123	0xbd39998e	-0.045312457
124	0xbd3fdc32	-0.046840854
125	0x3e73106b	0.23736732
126	0x3ea58212	0.32325798
127	0xbf98fcc7	-1.1952142
128	0x3dc2f32a	0.09519036
129	0x3d34233f	0.043978926
130	0xbe82d44f	-0.25552604
131	0x3f90a014	1.1298852
132	0xbed9ecfd	-0.4256362
133	0xbe985721	-0.29753974
134	0xbd40d2dc	-0.04707609
135	0xbd49d8d9	-0.049279068
136	0x3dbbdccb	0.09172972
137	0x3cb165e5	0.021655032
138	0xbd7067c5	-0.058692712
139	0xbe701d37	-0.23448645
140	0xbe29eb2e	-0.1659362
141	0xbc4a8d2a	-0.012362758
142	0x3b914c29	0.004434128
143	0xbf0da4b2	-0.5532943
144	0xbcb2766b	-0.021784982
145	0x3db1108c	0.08645734
146	0xbd87f7ed	-0.06639085
147	0x3d064e1a	0.032789327
148	0x3d874b16	0.066061184
149	0xbf1c7d5b	-0.6112878
150	0xbcd1fb9c	-0.025632672
151	0x3d7d8acc	0.061899945
152	0xbe4bdcc0	-0.19908428
153	0xbdb70316	-0.089361355
154	0xbe122d12	-0.14275005
155	0x3d6afac2	0.057368048
156	0x3d2ce9ac	0.042215034
157	0x3d3fb938	0.046807498
158	0x3f1893d7	0.59600586
159	0xbd22cb86	-0.039744876
160	0x3ea29b87	0.31759283
161	0xbe54eaf9	-0.2079276
162	0x3f245b9d	0.6420229
163	0x3de3e2d6	0.1112725
164	0xbdfa181c	-0.1221163
165	0x391e931c	0.00015122857
166	0xbc85c4ea	-0.016329248
167	0x3ca70ee0	0.020392835
168	0xbd199312	-0.037493773
169	0xbb4f9220	-0.003167279
170	0x3d2af282	0.04173518
171	0xbcc515ef	-0.02405831
172	0xbecef67a	-0.40422422
173	0x3df8353d	0.121195294
174	0xbefa8096	-0.48926228
175	0x3d79aafa	0.06095407
176	0x3d69cdae	0.057080917
177	0x3cccda3a	0.025006402
178	0x3cbe4244	0.023224957
179	0x3e88719d	0.2664918
180	0x3cf0ffcb	0.029418847
181	0x3d05330a	0.032519378
182	0x3d84f12b	0.06491312
183	0xbc9ee00c	-0.019393943
184	0x3c9c8ff0	0.019111603
185	0xbd4543aa	-0.048160233
186	0xbb92d800	-0.0044813156
187	0x3d8afb5e	0.06786226
188	0xbd790f50	-0.06080562
189	0xbc886985	-0.016651878
190	0xbd7c21de	-0.061555736
191	0xbe9cf97a	-0.30659086
192	0x3d14317e	0.036180012
193	0xbebf0c7d	-0.37314215
194	0x3e9b4d4a	0.30332404
195	0xbda9cbd0	-0.08290827
196	0x3cfb7604	0.030695923
197	0x3d5c7d79	0.053830598
198	0xbb392375	-0.0028249894
199	0x3d580907	0.052742984
200	0x3b2ca310	0.002634231
201	0x3e9b1b4a	0.30294257
202	0xbcaa2b44	-0.020772584
203	0x398074eb	0.00024501173
204	0xbccc4964	-0.02493734
205	0x3d15a3d6	0.0365332
206	0xbd7b75b6	-0.061391555
207	0xbd89abe4	-0.06722239
208	0xbdfcee4d	-0.1235014
209	0x3d1bb208	0.03801158
210	0x3d053c9c	0.032528505
211	0xbe215b88	-0.15757573
212	0xbd605e12	-0.054777212
213	0x3cf17305	0.02947379
214	0xbdaeed26	-0.08541326
215	0x3ef66a7f	0.48128125
216	0x3e637d7c	0.22215837
217	0xbe69d8c6	-0.22836599
218	0xbe0e0ebd	-0.1387281
219	0x3d5fa290	0.05459839
220	0xbc6a7e8d	-0.014312399
221	0x3cd54725	0.0260349
222	0x3e5e3abb	0.21702091
223	0x3e72f1ba	0.23725024
224	0x3d30766f	0.043081697
225	0xbf1a6c0b	-0.6032111
226	0x3de149c7	0.110004
227	0x3ebc3d44	0.36765492
228	0x3e997a55	0.29976144
229	0xbebe9c61	-0.37228683
230	0xbeb9831c	-0.3623284
231	0xbe091621	-0.13387348
232	0x3d71e909	0.05906013
233	0x3c86b5d5	0.016444126
234	0x3e025399	0.12727202
235	0xbe9757f0	-0.29559278
236	0xbb839cfd	-0.004016517
237	0xbdfa5469	-0.12223131
238	0x3c76b550	0.015057877
239	0x3caf9878	0.021435007
240	0x3f44da86	0.7689594
241	0xbef41e9f	-0.47679612
242	0xbd69f3ce	-0.057117276
243	0xbeb9364b	-0.36174235
244	0x3bd8ac01	0.0066123013
245	0xbd4ef5e9	-0.050527487
246	0x3e632ce7	0.22185098
247	0x3c86a74c	0.016437195
248	0x3ca95fd6	0.020675581
249	0x3d5111ba	0.051042296
250	0xbe17b5df	-0.14815472
251	0x3e50ec78	0.20402706
252	0x3d6be5e6	0.057592295
253	0xbd706faa	-0.05870024
254	0xbeb7e3f6	-0.35916108
255	0x3cc105e8	0.023562387

fc2.bias f4 [256]
0	0xbece483d	-0.40289488
1	0xbed88c33	-0.42294464
2	0xbed8f2e1	-0.42372802
3	0xbc87b9e2	-0.016568128
4	0xbdbf2ee7	-0.09335118
5	0xbe00b3aa	-0.12568536
6	0xbe8917e6	-0.26776046
7	0xbf8e5b05	-1.1121527
8	0xbe461b96	-0.1934646
9	0x3c685ff4	0.014183033
10	0xbd9f07ab	-0.077651344
11	0xbe916538	-0.28397536
12	0xbf03468a	-0.5127951
13	0x3e2c1d6a	0.16808096
14	0xbe02e28c	-0.12781733
15	0xbe564dcd	-0.20928116
16	0x3eea2555	0.45731607
17	0xbdcf7221	-0.1012919
18	0xbe82356b	-0.2543138
19	0x3f454357	0.7705588
20	0x3dee5663	0.11637571
21	0xbd73fae4	-0.05956544
22	0xbec59591	-0.38590673
23	0xbe93e7b5	-0.28887716
24	0x3e387fa6	0.18017444
25	0xbe6d31a3	-0.23163466
26	0xbd492ae7	-0.04911318
27	0x3e0820a1	0.13293697
28	0xbdabfc05	-0.08397678
29	0x3ecadc53	0.3962122
30	0xbd969085	-0.07351784
31	0xbebc53c8	-0.3678267
32	0xbb667eee	-0.003517087
33	0x3ed45268	0.4146912
34	0x3d19c997	0.037545767
35	0xbdaebc9c	-0.08532068
36	0x3c60667e	0.013696311
37	0xbe62f79b	-0.22164766
38	0xbee97651	-0.4559808
39	0x3d969e9e	0.073544726
40	0xbe8023f8	-0.25027442
41	0xbe8a134d	-0.2696785
42	0xbf17f1d8	-0.593534
43	0xbf1c9b7b	-0.61174744
44	0xbc1ebb9a	-0.009688282
45	0xbd612819	-0.05496988
46	0xbda599b0	-0.08085954
47	0xbe0cbb3d	-0.137433
48	0xbefad7c9	-0.48992756
49	0xbe7e8c7c	-0.24858278
50	0x3e4fc0a3	0.20288329
51	0xbf8aa65a	-1.0832016
52	0xbd3cedac	-0.0461251
53	0xbd80aa77	-0.062825136
54	0x3dd939e3	0.10606744
55	0xbcd86eb2	-0.026419971
56	0x3f0929e7	0.5357956
57	0xbe9a3b9a	-0.30123597
58	0xbe02e592	-0.12782887
59	0xbe91885d	-0.2842435
60	0xbecac2ce	-0.3960175
61	0xbd267145	-0.040635366
62	0xbc32a9d1	-0.010904745
63	0xbe901743	-0.28142747
64	0xbd78ad4d	-0.060712148
65	0xbcbd7afd	-0.023129934
66	0x3ee3f806	0.44525164
67	0xbf0d206d	-0.551276
68	0xbd8e9352	-0.06961693
69	0x3ef30ecc	0.47472227
70	0x3edab3bd	0.42715254
71	0x3e1efa2d	0.15525122
72	0x3e5bb34a	0.21455112
73	0x3a171f37	0.0005764844
74	0xbd7a604a	-0.061126985
75	0xbe9bc361	-0.304225
76	0xbdcecd56	-0.100977585
77	0x3c1ed30b	0.009693871
78	0xbd8ea454	-0.06964937
79	0x3d015f43	0.03158499
80	0xbd52fa51	-0.05150825
81	0xbd26bad3	-0.040705513
82	0xbd89f086	-0.06735329
83	0xbdb4b946	-0.088244006
84	0xbe7b49c4	-0.24539858
85	0x3da8b1cc	0.08237037
86	0x3dff3528	0.124613106
87	0xbf4eb77b	-0.8074872
88	0xbf1ba0c1	-0.60792166
89	0x3d98f874	0.07469264
90	0x3bad0546	0.0052801697
91	0xbec1ddf5	-0.37864652
92	0xbe8b2eda	-0.27184182
93	0x3ef20064	0.47265923
94	0xbdb587c4	-0.08863786
95	0xbd959949	-0.073046274
96	0x3ac1fd21	0.001480017
97	0xbd2a930f	-0.041644152
98	0xbdbbe1e8	-0.091739476
99	0x3c53f880	0.012937665
100	0xbe1b3bb0	-0.15159488
101	0xbd737008	-0.059433013
102	0xbe8d0fd0	-0.27551126
103	0xbebc6081	-0.36792377
104	0x3ddfcd12	0.10927786
105	0x3e00f202	0.12592319
106	0xbe46067c	-0.19338411
107	0x3f53b700	0.8270111
108	0xbe2f3fc1	-0.17114164
109	0xbecd3d4d	-0.4008583
110	0xbd287426	-0.041126393
111	0x3e4ddeb4	0.20104486
112	0x3e5ccba5	0.21562059
113	0x3ea5691b	0.32306752
114	0xbddb07f1	-0.10694874
115	0xbced9bed	-0.029005015
116	0x3d50bebf	0.05096316
117	0xbeb26c9d	-0.3484849
118	0xbd676de6	-0.05650129
119	0xbe18b000	-0.14910889
120	0x3cb42993	0.02199248
121	0xbed3c1f3	-0.4135891
122	0xbeed9879	-0.4640539
123	0xbea48511	-0.32132772
124	0xbdd15033	-0.10220375
125	0x3bfcf135	0.007719184
126	0x3da472aa	0.08029683
127	0xbbe885e7	-0.0070960405
128	0x3abf9c80	0.0014618784
129	0xbea9b7b8	-0.3314798
130	0xbe204cf8	-0.15654361
131	0xbd871103	-0.065950416
132	0xbd93e84d	-0.07222042
133	0xbe5630f5	-0.20917113
134	0xbcb9124b	-0.02259173
135	0x3eca564d	0.39518967
136	0x3ea88ec9	0.32921436
137	0xbe19dfb2	-0.15026739
138	0x3d015a1c	0.031580076
139	0xbea971d1	-0.33094648
140	0x3eda8050	0.4267602
141	0x3cb7ef1a	0.02245288
142	0x3cfd79a9	0.030941801
143	0xbe453cb7	-0.19261442
144	0xbdb39e0d	-0.0877038
145	0xbe85c875	-0.261295
146	0x3ceee35d	0.02916115
147	0xbf007533	-0.5017883
148	0xbed41ff0	-0.41430616
149	0xbd47026c	-0.048586294
150	0x3e1d2bf5	0.153488
151	0x3c519296	0.0127912965
152	0x3f4edd72	0.8080665
153	0x3ce5b30e	0.028039481
154	0x3c31ac23	0.010844263
155	0x3e5a2200	0.21302032
156	0xbdacde90	-0.08440888
157	0x3c6f45fa	0.014604086
158	0xbe24b86b	-0.16085975
159	0xbe02f40c	-0.12788409
160	0xbebdc01d	-0.37060633
161	0xbe7d36e0	-0.24727964
162	0xbcc88e13	-0.024481809
163	0xbe007db1	-0.12547947
164	0x3e26695a	0.16251126
165	0x3e668696	0.22512278
166	0xbe6083be	-0.21925256
167	0xbf0fc91c	-0.56166244
168	0xbefd9b29	-0.4953244
169	0x3ace9511	0.0015760978
170	0xbe0c660f	-0.13710807
171	0xbec1ae08	-0.37828088
172	0xbe2fce97	-0.17168652
173	0xbe556faf	-0.20843385
174	0xbe63ca46	-0.2224513
175	0xbe791a4a	-0.24326435
176	0x3e59c28f	0.21265624
177	0xbdf9dde1	-0.12200523
178	0xbba7b453	-0.005117932
179	0xbedc8c70	-0.43075895
180	0x3f4cf0f6	0.8005518
181	0xbd78d0ba	-0.060745932
182	0x3eab72c3	0.33485994
183	0xbe0da8b3	-0.13833885
184	0x3e4d5135	0.2005051
185	0xbeaf4dbe	-0.34239
186	0x3f5b005c	0.85547423
187	0xbda551f1	-0.0807227
188	0xbcefd835	-0.0292779
189	0xbf374c7b	-0.71601075
190	0x3e8106b1	0.25200418
191	0xbebbac73	-0.36655006
192	0xbe0e9a33	-0.1392601
193	0xbd858b90	-0.0652076
194	0xbecc4e8b	-0.39903674
195	0xbe20a1be	-0.156867
196	0xbf27e1ef	-0.6557912
197	0xbe2d9a61	-0.16953422
198	0xbe8a566b	-0.27019057
199	0xbe77d5ab	-0.24202602
200	0xbdf5a328	-0.1199401
201	0xbf1c41c6	-0.6103786
202	0xbeae0931	-0.33991387
203	0xbd523759	-0.051322315
204	0xbe4a4c4b	-0.19755666
205	0x3e60496d	0.2190301
206	0xbb8cf247	-0.0043013426
207	0xbe1ff2cf	-0.15619968
208	0xbe9c85d8	-0.30570865
209	0xbd8ad351	-0.06778587
210	0xbeb7535d	-0.3580579
211	0xbe03d9b8	-0.12876022
212	0x3af3caac	0.001859983
213	0xbcfb96f4	-0.030711628
214	0xbd2ff7ac	-0.042960808
215	0xbee06a94	-0.43831313
216	0xbeb8a8ca	-0.36066276
217	0xbead9be3	-0.33907995
218	0xbe65e444	-0.22450358
219	0x3f11289a	0.5670258
220	0xbd18a7f9	-0.037269566
221	0xbd99ffd1	-0.07519496
222	0xbdb48287	-0.088139586
223	0x3e221d4d	0.1583149
224	0xbe8aeee3	-0.2713538
225	0x3c5f3d79	0.013625496
226	0xbe841932	-0.25800472
227	0xbe9034ef	-0.28165385
228	0x3ea125fa	0.31474286
229	0xbcda3a8c	-0.026639245
230	0xbeec8afa	-0.4619978
231	0xbf017a2f	-0.5057706
232	0x3e88999a	0.2667969
233	0xbdb3a261	-0.08771206
234	0xbe658004	-0.22412115
235	0xbf1b3f80	-0.6064377
236	0xbe57ad3a	-0.21062174
237	0xbc4252d2	-0.011860566
238	0x3e9a3ed8	0.3012607
239	0xbe909691	-0.28239873
240	0xbd7f82c8	-0.062380582
241	0xbe62d0fb	-0.22150032
242	0xbf07f077	-0.53101295
243	0x3f193880	0.5985184
244	0xbe44c817	-0.19216953
245	0xbecac00a	-0.3959964
246	0xbf830397	-1.023547
247	0xbea0f1d5	-0.31434503
248	0xba9cd6a0	-0.0011965819
249	0x3dff6206	0.12469868
250	0xbedfbd8a	-0.43699294
251	0xbe83c90c	-0.25739324
252	0x3ba89d62	0.0051457146
253	0xbc886338	-0.016648874
254	0x3f6538da	0.89539874
255	0x3cf1b917	0.029507203

fc3.weight f4 [256, 256]
0	0xbeb32519	-0.3498924
1	0xbeb13ae1	-0.34615234
2	0xbe81651d	-0.25272456
3	0xbd5ddbb3	-0.0541646
4	0xbd7199fb	-0.058984738
5	0xbe5cacbc	-0.21550268
6	0x3ec74df6	0.38926667
7	0xbe7d2ccb	-0.24724118
8	0x3dbc83e3	0.09204843
9	0xbb768312	-0.0037614745
10	0xbec9e686	-0.39433688
11	0xbfb37a50	-1.4021702
12	0x3e80f988	0.25190377
13	0x3db5d76c	0.08878979
14	0xbe810136	-0.25196236
15	0xbec235a0	-0.37931538
16	0x3eb61c0c	0.35568273
17	0xbf6bacbc	-0.92060447
18	0x3ceb39fe	0.028714176
19	0x3afb503e	0.0019173694
20	0x3d4cccda	0.05000005
21	0x3d752ba8	0.059856087
22	0x3e197c4b	0.1498882
23	0xbe9bb843	-0.30414018
24	0x3ea8993a	0.32929403
25	0xbeb4a429	-0.35281494
26	0x3c88f167	0.016716672
27	0xbd1de62c	-0.038549587
28	0x3db59a72	0.08867349
29	0x3e38402f	0.17993234
30	0xbcb5d646	-0.0221969
31	0x3f04e9c5	0.51919204
32	0xbcbeb908	-0.02328159
33	0xbf1c6c67	-0.6110291
34	0xbe6d72e7	-0.23188363
35	0xbcb339bd	-0.021878118
36	0x3d737759	0.05943999
37	0x3f006783	0.50157946
38	0xbd22ba50	-0.039728463
39	0xbefeacdc	-0.49741256
40	0xbeb0440b	-0.34426913
41	0x3c5683f6	0.013092985
42	0xbf30a9a8	-0.69008875
43	0xbf695edd	-0.91160375
44	0x3e28464b	0.16433065
45	0x3c2b8548	0.010468788
46	0xbd86d800	-0.065841675
47	0xbe745a0c	-0.23862475
48	0x3ebdacfe	0.37046045
49	0xbee81821	-0.4533091
50	0xbe53db8c	-0.20689219
51	0xbf5fabc7	-0.87371486
52	0xbb76fc9f	-0.0037687195
53	0xbcabc674	-0.020968653
54	0xbe4f3170	-0.20233703
55	0xbe0c4ad4	-0.1370042
56	0xbe9837c1	-0.29730037
57	0x3d1bd2d9	0.038042877
58	0x3e6238b7	0.22091947
59	0x3eb3ea5e	0.35139745
60	0x3d8e4ddf	0.069484465
61	0x3e639451	0.22224547
62	0xbd1ac700	-0.037787437
63	0xbea0db0e	-0.31417125
64	0xbcf62c1c	-0.03005033
65	0x3b42e154	0.0029736357
66	0xbe5e954a	-0.21736637
67	0xbda343e1	-0.07971931
68	0xbc804d17	-0.01566176
69	0xbdd699c2	-0.10478546
70	0xbf258208	-0.64651537
71	0x3e7be0ae	0.24597427
72	0xbe3aac4c	-0.18229789
73	0xbd2c9986	-0.0421386
74	0x3b7d54f1	0.0038655365
75	0x3d4cfe35	0.05004712
76	0xbe9d5955	-0.30732217
77	0x3cfc59ce	0.030804541
78	0xbd926872	-0.071488276
79	0xbd2171fc	-0.039415345
80	0xbbd35350	-0.0064491406
81	0xbbc63e4e	-0.0060499078
82	0xbeac9878	-0.33710074
83	0xbb803654	-0.0039127264
84	0xbe2039f3	-0.15647106
85	0xbe482f7e	-0.19549367
86	0xbddf175e	-0.10893129
87	0xbe01868f	-0.12648986
88	0x3e544de1	0.20732833
89	0xbc46d42a	-0.012135545
90	0xbd153b8f	-0.036433753
91	0xbe2dd688	-0.16976368
92	0x3e63e9c0	0.22257137
93	0xbe35b49c	-0.17744678
94	0xbe2b5f5f	-0.167356
95	0xbafc3cf0	-0.0019244235
96	0xbd756008	-0.059906036
97	0xbe0a306c	-0.13495034
98	0xbededf64	-0.4352981
99	0x3c73d295	0.01488175
100	0x3e7de3b9	0.247939
101	0x3c485a5f	0.012228577
102	0xbeee1453	-0.4649988
103	0xbedcd000	-0.4312744
104	0xbe68fb74	-0.22752172
105	0xbee8c222	-0.45460612
106	0xbf5007f5	-0.8126214
107	0xbf1ae7dd	-0.60510045
108	0xbe8db961	-0.27680495
109	0x3f3ad788	0.72985125
110	0xbd5d201c	-0.0539857
111	0x3d6923dc	0.056918964
112	0xbdb2fa16	-0.08739106
113	0xbe24b398	-0.16084135
114	0xbd570dc1	-0.05250335
115	0xbd873ec9	-0.06603772
116	0x3debf33a	0.11521001
117	0x3ed27527	0.41105005
118	0xbc227fb0	-0.009918138
119	0x3ec128cc	0.37726438
120	0xbda77e15	-0.08178345
121	0xbdf45ef8	-0.11932176
122	0x3f2a7513	0.6658489
123	0xbeccb0cc	-0.39978635
124	0x3d2b7003	0.04185487
125	0x3d0a673a	0.03378985
126	0x3e98ba39	0.29829577
127	0x3c7ea7f6	0.015542975
128	0x3de5523d	0.11197326
129	0x3c8700f2	0.016479943
130	0xbef730a6	-0.48279303
131	0x3c951516	0.018198531
132	0xbbf51ad4	-0.007480005
133	0x3eec803a	0.4619158
134	0xbd3204f2	-0.043461747
135	0xbf07bd7d	-0.5302351
136	0x3e511747	0.20419036
137	0x3ec16369	0.37771156
138	0xbbe158f5	-0.0068770596
139	0x3dbcf4b8	0.09226364
140	0xbeb5fb02	-0.35543066
141	0x3ca22f23	0.019797867
142	0xbd60566f	-0.05476993
143	0xbf136344	-0.5757334
144	0x3c9a7a90	0.01885727
145	0xbdfc3e9c	-0.12316629
146	0xbce217dc	-0.027599268
147	0xbeb9b3db	-0.3627003
148	0xbe016d18	-0.12639272
149	0x3bfcd6f8	0.007716056
150	0x3e01138e	0.12605116
151	0x3d79d946	0.060998224
152	0x3ca8ab88	0.020589605
153	0xbd39f222	-0.04539693
154	0x3ea9d6e4	0.3317176
155	0xbeebfeca	-0.46092826
156	0x3cc2b030	0.023765653
157	0xbd85c70c	-0.06532106
158	0x3e7a2e19	0.24431647
159	0x3ea1e585	0.31620422
160	0x3e3d5845	0.18490703
161	0xbf2d8504	-0.6778109
162	0x3ea7acec	0.32749116
163	0xbea9dde8	-0.33177114
164	0x3e11a3f2	0.14222696
165	0x3e6af238	0.22943962
166	0xbf0e17c4	-0.55505013
167	0xbeddc668	-0.43315434
168	0xbd24fe54	-0.04028161
169	0xbfa869e9	-1.3157321
170	0xbde0ccb0	-0.10976541
171	0x3f1003a3	0.5625555
172	0x3eb2fd6e	0.34958977
173	0xbc895c14	-0.01676754
174	0x3f21e867	0.6324524
175	0xbf1a5960	-0.60292625
176	0x3e98fc03	0.2987977
177	0x3e68dead	0.22741194
178	0x3ea9fc3e	0.33200258
179	0xbed93743	-0.42424974
180	0xbf8926bc	-1.0714946
181	0x3da2d3db	0.079505645
182	0xbea98b1b	-0.33113942
183	0x3c2f68d3	0.010706144
184	0x3d85ad2b	0.0652717
185	0x3d031669	0.032003794
186	0xbdf10748	-0.11768967
187	0xbd73c14f	-0.059510525
188	0xbcfcf014	-0.030876197
189	0xbf83e0b4	-1.0302949
190	0xbe3dc7d8	-0.18533266
191	0x3ef59688	0.4796641
192	0x3f0321c5	0.51223403
193	0xbf729e4e	-0.94772804
194	0x3ed4573a	0.414728
195	0xbc609d4a	-0.013709376
196	0xbdf9a66b	-0.12189945
197	0x3f0e59d0	0.55605793
198	0x3e93dea2	0.28880793
199	0x3e8c33e6	0.27383345
200	0x3e3d3ce1	0.18480255
201	0xbe79c9d8	-0.24393404
202	0x3c7df77d	0.0155009
203	0x3d6e2ba1	0.058147077
204	0xbe40c6b0	-0.18825793
205	0xbed085b6	-0.40727013
206	0x3d2bba79	0.04192588
207	0x3dee866a	0.11646731
208	0xbca3828b	-0.019959709
209	0xbca4b26c	-0.02010461
210	0xbe7ab3ec	-0.24482697
211	0x3ea99dc8	0.3312819
212	0xbd506e64	-0.050886527
213	0xbbcb3c4c	-0.0062022563
214	0xbcc0af1b	-0.023520997
215	0xbc5b016e	-0.01336704
216	0xbaf70b8e	-0.0018848048
217	0xbca8f25f	-0.020623384
218	0xbde40129	-0.11133034
219	0xbeb6dc8a	-0.35715133
220	0x3d3457aa	0.044028915
221	0xbe2ddb39	-0.16978158
222	0x3d80bcb7	0.062859945
223	0xbe976b9b	-0.29574284
224	0x3e2290c5	0.15875538
225	0xbc2b0947	-0.010439224
226	0x3f02f10c	0.5114906
227	0x3e067635	0.1313103
228	0xbfbf7e83	-1.4960483
229	0xbcfe72fc	-0.031060688
230	0x3eb471fd	0.35243216
231	0x3cc2d9a1	0.023785414
232	0xbecb9ac8	-0.39766526
233	0xbc782da0	-0.015147597
234	0xbe6af879	-0.22946347
235	0xbcad03f6	-0.021120053
236	0x3e69bb6e	0.22825405
237	0x3d08e35a	0.033419944
238	0xbdf21864	-0.118210584
239	0x3f1506a6	0.5821327
240	0xbed82e32	-0.42222744
241	0xbc86e72b	-0.016467651
242	0x3e4f1ac3	0.20225053
243	0xbe53e583	-0.2069302
244	0xbed3bf88	-0.41357064
245	0x3ce77f2a	0.028258879
246	0xbe8aee02	-0.2713471
247	0xbe0adb34	-0.13560182
248	0xbe6d65a3	-0.23183303
249	0x3df5d618	0.12003726
250	0x3f50d3ae	0.81573
251	0x3eed41d1	0.46339276
252	0x3cb3ea6e	0.02196237
253	0x3ed9a4fc	0.42508686
254	0xbe899a30	-0.26875448
255	0xbd51030a	-0.05102829

fc3.bias f4 [256]
0	0xbe3ef5f5	-0.18648513
1	0x3e7d3f7b	0.24731247
2	0xbebc7dda	-0.36814767
3	0xbed710fe	-0.42005152
4	0xbf921a4c	-1.1414275
5	0xbe7fa9f7	-0.2496718
6	0xbe1e7a02	-0.1547623
7	0xbf185e77	-0.5951914
8	0xbe2eb370	-0.17060637
9	0xbf4dda6a	-0.804114
10	0xbe77eba9	-0.24210991
11	0xbf5abe30	-0.85446453
12	0x3e067a95	0.13132699
13	0xbf51ac63	-0.81903666
14	0xbee8354b	-0.4535316
15	0x3e851690	0.25993776
16	0xbf1ef8de	-0.6209849
17	0x3ec3e887	0.38263342
18	0xbf7aa8a3	-0.9791357
19	0xbf07ecce	-0.5309571
20	0xbed79c92	-0.4211164
21	0xbf45b2be	-0.77225864
22	0xbef22c53	-0.47299442
23	0xbf2a2d16	-0.66475046
24	0xbedcde75	-0.4313847
25	0xbf084f1e	-0.53245723
26	0xbeacaf3a	-0.33727437
27	0xbf406680	-0.751564
28	0xbf28164a	-0.6565901
29	0xbf990834	-1.1955628
30	0xbec71010	-0.38879442
31	0xbebdad3b	-0.37046227
32	0xbf073857	-0.5282034
33	0xbf8e044c	-1.1095061
34	0xbeefd79f	-0.46844193
35	0xbe9b9eb9	-0.30394533
36	0x3e1e6e22	0.154717
37	0xbe569840	-0.20956516
38	0xbf92274e	-1.1418245
39	0xbf0c795c	-0.5487268
40	0xbf592cf2	-0.84834206
41	0xbf7cd297	-0.98758835
42	0xbed39cb9	-0.41330507
43	0xbef1d5f7	-0.47233555
44	0xbf5687df	-0.8380107
45	0xbeb9f929	-0.36322907
46	0xbdc10adc	-0.094258994
47	0xbf377fd6	-0.7167944
48	0xbea5cbba	-0.32381994
49	0xbe2b45d3	-0.16725855
50	0xbef5d8c4	-0.48016942
51	0xbf3f5889	-0.7474447
52	0x3e795415	0.24348481
53	0xbe161069	-0.14654697
54	0xbe72cef5	-0.2371176
55	0xbb6d8317	-0.0036241466
56	0x3df946e5	0.12171725
57	0xbf092c56	-0.53583276
58	0xbf2ac88b	-0.66712254
59	0xbf0be71c	-0.5464952
60	0xbf00eabf	-0.50358194
61	0xbea447eb	-0.3208612
62	0xbf6cf088	-0.9255452
63	0xbe372056	-0.17883429
64	0xbf17e92d	-0.59340173
65	0xbf58eb00	-0.8473358
66	0xbf384798	-0.71984243
67	0xbf64791a	-0.89247286
68	0x3cbcb277	0.023034317
69	0xbf545037	-0.829349
70	0xbe6aad6a	-0.22917715
71	0xbf679c11	-0.90472513
72	0xbf26fa9f	-0.6522617
73	0xbf382b40	-0.71940994
74	0xbf712224	-0.9419272
75	0xbf0fc3ab	-0.5615794
76	0x3ed8f5d7	0.4237506
77	0xbebda8aa	-0.37042743
78	0xbf650044	-0.8945353
79	0xbe4136b5	-0.18868525
80	0xbf098d5d	-0.5373133
81	0xbf79350b	-0.9734656
82	0xbe5426fd	-0.20717998
83	0xbf2dde52	-0.6791736
84	0xbe51855d	-0.2046103
85	0xbf881d96	-1.0634029
86	0x3f1ed132	0.62037957
87	0xbf427b35	-0.7596925
88	0xbf2cff66	-0.6757721
89	0xbf729f15	-0.9477399
90	0xbf1e8a35	-0.6192964
91	0xbf3cee57	-0.7380118
92	0x3e1ed850	0.15512204
93	0xbf96fbca	-1.179559
94	0xbf5dfac6	-0.86710775
95	0xbf23f835	-0.6405061
96	0xbf019f2c	-0.506335
97	0x3e16bd99	0.14720763
98	0xbe23a2ce	-0.15980074
99	0xbf455937	-0.77089256
100	0xbcceb9ca	-0.025235076
101	0xbe060e8f	-0.13091491
102	0xbf44185e	-0.7659968
103	0xbf0e58d5	-0.55604297
104	0x3ea416a6	0.3204853
105	0xbd8fc68a	-0.0702029
106	0xbf3c3425	-0.73517066
107	0xbf01a325	-0.50639564
108	0xbdc8d7c9	-0.09806783
109	0xbf1b3e40	-0.6064186
110	0xbe7a14d1	-0.24422003
111	0xbf5bfebe	-0.8593558
112	0xbe39efd9	-0.18157901
113	0x3e68b059	0.22723521
114	0xbe8afe6d	-0.27147236
115	0xbecbe8b5	-0.3982598
116	0xbf0822e9	-0.5317827
117	0xbed61652	-0.41813904
118	0xbed414b1	-0.41422036
119	0xbf62458b	-0.88387364
120	0xbd37353a	-0.044728495
121	0xbf087a1d	-0.5331133
122	0xbf2be0e9	-0.6714006
123	0xbf27f21d	-0.6560381
124	0xbf043b11	-0.5165263
125	0xbdb27f11	-0.08715642
126	0xbf5d144e	-0.8635911
127	0xbf909de0	-1.129818
128	0x3e40064d	0.18752404
129	0xbf8359e2	-1.0261805
130	0xbec94174	-0.3930775
131	0xbf2b3426	-0.6687645
132	0xbf0a6c2e	-0.5407132
133	0xbf78315c	-0.96950316
134	0xbf4f6a08	-0.81021166
135	0xbe8cc068	-0.27490544
136	0xbf89b2da	-1.0757706
137	0x3ddb0d2d	0.106958725
138	0xbd1b7454	-0.037952736
139	0xbdec35cb	-0.11533698
140	0xbf31bad0	-0.6942568
141	0x3f118ab1	0.5685225
142	0xbeba3d96	-0.3637511
143	0x3d909ee9	0.0706156
144	0xbf0ec191	-0.5576411
145	0xbedea8d7	-0.4348819
146	0xbf2db7c1	-0.6785851
147	0xbf21dff3	-0.63232344
148	0x3e49383b	0.19650356
149	0xbef70d60	-0.48252392
150	0xbf878007	-1.0585946
151	0x3e8838b7	0.2660577
152	0xbed81a60	-0.42207623
153	0xbf435dd2	-0.76315033
154	0xbf218931	-0.6309996
155	0xbf20a202	-0.62747204
156	0x3cf69f44	0.03010524
157	0xbd56208c	-0.052277133
158	0xbf5a2824	-0.852175
159	0xbeb221be	-0.34791368
160	0xbbef6431	-0.007305645
161	0xbda59fd6	-0.08087127
162	0xbf355a84	-0.7084124
163	0xbf18ba6f	-0.59659475
164	0x3ece8d51	0.4034219
165	0xbf05149b	-0.51984566
166	0xbea76a9c	-0.32698524
167	0xbe86ecef	-0.2635264
168	0xbf749514	-0.95539975
169	0xbf7bc634	-0.9834931
170	0xbeb79a7a	-0.35860044
171	0xbdf0eb85	-0.11763672
172	0xbf116508	-0.56794786
173	0xbea6bfbf	-0.32568166
174	0xbf87d821	-1.0612832
175	0x3e46d0f8	0.19415653
176	0xbf02a410	-0.5103159
177	0xbf61e4f8	-0.88240004
178	0xbf190efc	-0.5978849
179	0xbf5b17d4	-0.85583234
180	0x3f7ceee1	0.98802
181	0xbf688ee1	-0.90843016
182	0xbeec815b	-0.4619244
183	0xbf969557	-1.1764325
184	0xbe86398f	-0.2621579
185	0xbf85afc7	-1.0444268
186	0xbf2ecf69	-0.6828523
187	0xbe8ebf48	-0.2788031
188	0xbe1d02e4	-0.15333134
189	0xbe214ab8	-0.15751159
190	0xbef0b05c	-0.47009552
191	0x3e8af077	0.27136585
192	0xbf1d5e33	-0.6147186
193	0xbebf7ef6	-0.3740155
194	0xbf0d2a0b	-0.5514228
195	0xbfa037e8	-1.2517061
196	0xbcbe1483	-0.02320314
197	0xbeb4e481	-0.35330585
198	0xbeabed71	-0.3357959
199	0xbf61f509	-0.8826452
200	0x3e800031	0.25000146
201	0xbeed3367	-0.4632828
202	0xbe79577c	-0.24349779
203	0xbe8b0641	-0.2715321
204	0x3d978162	0.07397725
205	0x3c36cf0e	0.011157764
206	0xbd620346	-0.055178903
207	0xbf207308	-0.62675524
208	0xbf32cf93	-0.69847983
209	0xbfa75bbf	-1.3074874
210	0xbf197ce2	-0.5995618
211	0xbe8d3590	-0.27579927
212	0xbeb6a5f2	-0.3567348
213	0xbe64840d	-0.22315998
214	0xbf2eeb3a	-0.6832768
215	0xbf103255	-0.563268
216	0xbf567aa3	-0.8378088
217	0x3d9ce04b	0.07659968
218	0xbf4e99f9	-0.80703694
219	0xbee0bccd	-0.43894044
220	0xbf8768c3	-1.0578846
221	0xbf1effc0	-0.62108994
222	0xbf92c3aa	-1.1465962
223	0xbe059e02	-0.13048556
224	0xbf02eb81	-0.511406
225	0x3ed22fe6	0.4105217
226	0xbf799846	-0.97497976
227	0xbf452842	-0.77014554
228	0xbe95080e	-0.29107708
229	0xbf9eed04	-1.2416081
230	0xbf3dd328	-0.74150324
231	0xbf979b6e	-1.1844308
232	0xbeb4ea83	-0.35335168
233	0xbeadbe6b	-0.3393434
234	0xbeb2524b	-0.3482841
235	0x3f0bcb5d	0.5460718
236	0x3f158b60	0.58415794
237	0xbe9415db	-0.28922924
238	0xbf00755d	-0.5017908
239	0xbe235af5	-0.15952666
240	0xbd97c002	-0.074096695
241	0xbe534128	-0.20630324
242	0xbe9fe82b	-0.31231818
243	0xbf35dac8	-0.7103696
244	0x3d5ef0cd	0.054428864
245	0xbeb305c3	-0.34965333
246	0xbe80b804	-0.25140393
247	0xbfa36fd9	-1.2768508
248	0x3dbe4450	0.09290373
249	0xbe1ba20b	-0.15198533
250	0xbf662b61	-0.8990994
251	0xbee88d7a	-0.45420438
252	0x3e914103	0.28369913
253	0xbf1212d8	-0.57060003
254	0xbf4c8035	-0.7988313
255	0xbe75e976	-0.2401484

fc_mean.weight f4 [2, 256]
0	0xbda4211e	-0.08014129
1	0xbb8d8d9f	-0.004319861
2	0x3daddfcd	0.08489952
3	0x3db1ce16	0.08681886
4	0xbca14687	-0.01968695
5	0x3dc11ed6	0.094297096
6	0x3e6f8f8f	0.23394607
7	0x3e33fb8a	0.17576423
8	0x3d9f8434	0.077888876
9	0x3db2fdaf	0.087397926
10	0x3d60a0c0	0.054840803
11	0xbd0d77ea	-0.034538187
12	0xbd1aa877	-0.037758317
13	0x3dc3c7c4	0.09559587
14	0xbbf55d3c	-0.007487921
15	0xbdbf83de	-0.093513235
16	0x3d55dcf0	0.052212656
17	0xbc2d7d73	-0.010588991
18	0xbe3348ae	-0.17508194
19	0xbe3173b9	-0.17329301
20	0x3e8e627b	0.2780951
21	0xbde6efd9	-0.11276216
22	0xbc1b11b4	-0.00946467
23	0xbd2a48a9	-0.0415732
24	0xbd5fbc1e	-0.054622762
25	0x3e0ed730	0.13949275
26	0xbe93b4b2	-0.28848797
27	0xbdc899eb	-0.097949825
28	0xbe11337d	-0.14179797
29	0x3e22829b	0.15870135
30	0xbb9ae893	-0.004727432
31	0x3da8313c	0.08212516
32	0x3e1decf4	0.15422422
33	0xbe27e3eb	-0.16395538
34	0x3e6111d2	0.21979454
35	0x3d57736d	0.052600313
36	0xbe7138a0	-0.23556757
37	0x3d646e7e	0.055769436
38	0x3dea75aa	0.11448224
39	0xbe739519	-0.23787345
40	0x3e8df98c	0.27729452
41	0x3e08f61a	0.1337513
42	0x3bc814fc	0.006106017
43	0x3cf1afe2	0.029502813
44	0x3eaaabc3	0.3333417
45	0x3bda914e	0.0066701537
46	0x3d62af12	0.05534274
47	0xbe09c290	-0.13453126
48	0x3dd73c9b	0.105096065
49	0x3ce5d441	0.028055312
50	0x3d9115c7	0.07084232
51	0xbd8c06a6	-0.068372056
52	0xbe1a454b	-0.15065496
53	0x3cf87bf7	0.030332549
54	0x3b928e59	0.0044725356
55	0xbdb5522d	-0.088535644
56	0xbe1b5aa4	-0.15171295
57	0xbe0b200a	-0.1358644
58	0x3d3d6827	0.046241906
59	0xbe2e85d9	-0.17043246
60	0x3bdac797	0.006676625
61	0xbd739d47	-0.059476163
62	0x3dafd6fd	0.08585928
63	0xbda73115	-0.081636585
64	0x3c84c04d	0.016204977
65	0x3e3a83d8	0.18214357
66	0xbe15fd86	-0.14647493
67	0x3de4edf4	0.111781985
68	0x3dc4c370	0.09607589
69	0xbe7fd59f	-0.24983834
70	0xbe354634	-0.17702562
71	0xbe338518	-0.1753124
72	0x3e8f68a6	0.28009528
73	0xbdd9a523	-0.106272005
74	0xbdaf5bad	-0.08562408
75	0x3e919737	0.2843568
76	0xbd85845b	-0.065193854
77	0xbcd9f708	-0.026607051
78	0x3cc3098b	0.023808261
79	0x3c6c9244	0.014439169
80	0xbe467d6e	-0.19383785
81	0x3e4d2af1	0.20035912
82	0xbdf90efe	-0.12161063
83	0xbc126828	-0.008935966
84	0xbc549435	-0.012974788
85	0xbe286ddd	-0.1644816
86	0xbdb904e1	-0.09034134
87	0xbe3efb0d	-0.18650456
88	0xbe3c7022	-0.1840215
89	0x3dbb6e86	0.0915194
90	0xbf593af6	-0.8485559
91	0xbdc2b8a7	-0.09507876
92	0xbe345e91	-0.17614199
93	0xbe88c0dd	-0.26709643
94	0xbe1f2557	-0.15541588
95	0xbe046b76	-0.12931618
96	0xbec5352a	-0.38517123
97	0x39206bae	0.00015298903
98	0x3dfb6530	0.12275159
99	0xbe3c50d6	-0.18390211
100	0x3db90ba6	0.09035425
101	0xbd918616	-0.07105653
102	0x3e0f01b9	0.13965501
103	0xbd2c4e88	-0.04206708
104	0xbd9a4d03	-0.0753422
105	0xbe7a1581	-0.24422266
106	0x3dff23c9	0.12457997
107	0x3c91f758	0.017818138
108	0xbe1c2ad9	-0.1525072
109	0x3df63a0c	0.1202279
110	0x3e34e752	0.17666367
111	0x3df76a74	0.12080851
112	0xbe2754be	-0.1634092
113	0xbdcc7c99	-0.099847026
114	0x3e8fad6d	0.28062
115	0x3e1d459a	0.15358582
116	0xbd2b118f	-0.041764792
117	0x3daf3d71	0.08556641
118	0x3bff4f34	0.007791424
119	0xbe90e34e	-0.2829842
120	0xbdb42dd5	-0.08797804
121	0x3db4cec4	0.088285
122	0x3d7d634b	0.06186227
123	0x3e63b126	0.22235546
124	0x3de321ea	0.11090453
125	0xbdcd199e	-0.10014652
126	0x3d842bf3	0.06453695
127	0xbd0f6f1f	-0.035018083
128	0xbe0d899a	-0.13822022
129	0x3cf23821	0.02956778
130	0xbc91663d	-0.017748946
131	0xbdb6853b	-0.089121304
132	0x3e2909e5	0.1650768
133	0x3defbafa	0.11705585
134	0x3c4200a7	0.011840976
135	0x3e3c69dc	0.18399757
136	0x3b3d12e5	0.0028850373
137	0x3dbe386e	0.09288107
138	0xbe261ebb	-0.1622266
139	0xbcf22a1c	-0.029561095
140	0xbedcd469	-0.43130806
141	0xbdba69a3	-0.0910218
142	0xbe3be9ae	-0.1835086
143	0xbca78ed1	-0.020453842
144	0xbd7f119b	-0.06227265
145	0x3e0e2468	0.13881075
146	0x3c0a54ec	0.0084430985
147	0xbe101a1c	-0.1407246
148	0xbc2d8d91	-0.010592834
149	0x3dd20d25	0.10256413
150	0x3da774e5	0.08176593
151	0xbd6de448	-0.058079034
152	0xbdd203d0	-0.102546334
153	0x3d5bb01c	0.053634748
154	0x3dd1a0c2	0.1023574
155	0xbe568177	-0.20947824
156	0xbcd9bb5f	-0.026578603
157	0x3d0fcb5c	0.035106048
158	0xbdffaf47	-0.124846034
159	0xbe12fe29	-0.14354767
160	0xbe713d7c	-0.2355861
161	0xbeb6e722	-0.35723215
162	0xbe9495e6	-0.29020613
163	0xbde0106d	-0.10940633
164	0x3c98fc99	0.018675135
165	0xbdaa9843	-0.08329823
166	0xbe4cdd44	-0.20006281
167	0xbde4a09a	-0.11163445
168	0x3e2f540d	0.17121907
169	0x3df52ea8	0.119717896
170	0xbe2c0bdd	-0.168014
171	0x3e11feb7	0.14257322
172	0x3d9774ff	0.07395362
173	0x3e18bc1c	0.14915508
174	0x3e4552d5	0.19269879
175	0xbdc6bc1f	-0.0970385
176	0x3d61fbc8	0.055171758
177	0xbe87c439	-0.26516894
178	0xbd73db07	-0.059535053
179	0xbd89893d	-0.06715629
180	0xbbf8e7cb	-0.0075959913
181	0x3d7eb3b4	0.062183097
182	0xbe280b88	-0.16410649
183	0xbc3f625e	-0.011681167
184	0x3d7ee107	0.06222632
185	0x3ebe62f3	0.37184867
186	0xbddcb6c0	-0.10777044
187	0xbe340ff3	-0.17584209
188	0xbdb5e8de	-0.088823065
189	0x3cd23796	0.025661271
190	0xbe06151a	-0.13093987
191	0xbd99e637	-0.07514613
192	0xbe17c7e8	-0.14822352
193	0xbddd4297	-0.10803717
194	0xbe16cf13	-0.1472743
195	0x3dccc8c8	0.099992335
196	0xbdec39cc	-0.115344614
197	0xbe782e65	-0.24236448
198	0xbe6e6396	-0.23280177
199	0xba45dde3	-0.00075480173
200	0xbd81ff5e	-0.063475356
201	0x3ce5a169	0.028031068
202	0x3e15db27	0.14634381
203	0xbe8b3529	-0.27188995
204	0x3c809c7d	0.01569962
205	0x3c9c304d	0.019066
206	0x3d255daf	0.040372547
207	0x3d565ba4	0.05233349
208	0x3dff7ff5	0.12475578
209	0x3e186e85	0.1488591
210	0xbea53d75	-0.3227345
211	0x3c609bb6	0.013708999
212	0x3d474a9a	0.04865513
213	0x3de6f97a	0.11278053
214	0x3d0659f0	0.032800615
215	0x3d620098	0.055176347
216	0xbe6cf425	-0.23140009
217	0xbe3bb1c1	-0.18329526
218	0xbd88dc45	-0.06682638
219	0xbc3d01c0	-0.011536062
220	0x3c972044	0.018448003
221	0xbc3bbed4	-0.011459071
222	0x3c3f00a2	0.011657866
223	0xbcded173	-0.027199483
224	0x3e748a12	0.23880795
225	0xbde232f7	-0.11044877
226	0x3e7dd93e	0.24789903
227	0x3d4c010e	0.049805693
228	0x3d6cab1b	0.057780366
229	0x3e07d377	0.13264261
230	0x3e016dbe	0.1263952
231	0xbe6f3feb	-0.23364227
232	0x3f0fd3d7	0.56182617
233	0x3db5ea0b	0.08882531
234	0xbdfd4918	-0.12367457
235	0xbdd47e9e	-0.10375713
236	0xbd6784eb	-0.056523245
237	0xbe797a83	-0.24363141
238	0xbdc94931	-0.09828413
239	0x3e17a54f	0.14809154
240	0x3daa4065	0.083130635
241	0xbc74320c	-0.01490451
242	0x3d642c4f	0.05570632
243	0xbc2de054	-0.010612566
244	0x3c0082b2	0.00784366
245	0x3d1aa14d	0.037751485
246	0xbe18e44f	-0.14930843
247	0x3b5ff678	0.0034174006
248	0x3b928b6e	0.0044721877
249	0x3d84789c	0.06468317
250	0x3c5653f2	0.013081538
251	0x3dc943e1	0.098274
252	0x3da65a75	0.08122722
253	0xbd1b064f	-0.037847813
254	0xbd495a18	-0.049158186
255	0x3dc47c5a	0.09594031

fc_mean.bias f4 [2]
0	0x3cfb61ae	0.030686226
1	0xbcd01208	-0.025399223
